hw1/hw1_model.npy (npy, 2680 bytes, 1 tensors)

array f8 [325]
00000000: 2375 d894 951c f2bf 0a0a 5c76 87f8 b23f
00000010: b710 1bb0 335c ccbf 01a8 c4fd a1bf c33f
00000020: 9f57 4ae5 f0e6 b6bf f2a4 e252 2097 da3f
00000030: 2197 8ec6 ea9b d73f 68fb 91e0 c95c ce3f
00000040: 873d c121 92cf b53f 59bc e170 ae3a f53f
00000050: 5538 30a8 8dd0 e0bf 1719 8035 254e b5bf
00000060: f429 daec 4a67 b0bf f10a 925c eade e3bf
00000070: d148 837b 32eb dabf f7ff 5deb 092a b13f
00000080: 37f7 8fd7 783e debf 8ffe 99c1 7f45 dfbf
00000090: 7a46 bef3 f4ae e83f 5452 afe7 0ed6 0540
000000a0: 4c7e e5ba e563 1c40 9c1a 1c93 6e7b c03f
000000b0: c22b 9a68 3082 f63f fbac c066 05c9 f0bf
000000c0: 7b2c 9abf 08c4 f6bf 1ef9 ea34 0df0 06c0
000000d0: 1180 b0a4 42b5 1140 4494 e98e 5196 3240
000000e0: edbe 109b 4c6c 02c0 fe46 4df7 43b9 f73f
000000f0: d0a3 baea 494c e83f 379e 0759 9f75 f5bf
00000100: 244a bb43 4de1 efbf 17b2 ce45 fde7 c33f
00000110: 4f56 da82 7179 c4bf ffc9 dec2 7453 f23f
00000120: 5cd8 4b28 92c1 0640 5d3b b3c1 7592 07c0
00000130: 914d c8ab 67a2 94bf 4ad0 b988 dcc1 fb3f
00000140: a42a 080c 3fd2 f13f bf93 3b0c c9e3 02c0
00000150: ee38 af38 d29f fd3f 0f4b a886 3f60 0e40
00000160: b729 54cb d5cd febf 221c e8d3 7dd6 1ac0
00000170: b1c4 0011 b101 d4bf 323b 41a6 4277 e5bf
00000180: 3a33 6add a0e3 df3f 1f9a 6869 4e8c e2bf
00000190: be99 9cd3 ed72 b7bf 6ef4 e0e7 da0a e6bf
000001a0: c230 ff94 7cc8 f7bf 87df 0506 aa5c 6d3f
000001b0: 1b69 4354 bffd 1540 95b3 d5b4 7f1d f1bf
000001c0: b2bc 5418 315a e2bf 64c4 3d6b 70a5 ed3f
000001d0: 3ed0 86b0 0bc3 f03f feee c001 b1c4 b9bf
000001e0: db62 f675 4536 ab3f 081f 42a7 ab40 c3bf
000001f0: e4a3 4491 c545 de3f 5e28 34d0 26a0 0240
00000200: d35d aeba a0da cf3f 9520 5174 442e f1bf
00000210: 4fca 8757 8852 04c0 6d7f 22e5 abab 05c0
00000220: 0195 eb06 29bd f4bf 4492 2ea6 86f6 00c0
00000230: f65c 95e3 6a1d 03c0 78a4 4bf1 cd5b 1040
00000240: 2dfd 26e9 b0cb 3040 7b98 60db f993 eebf
00000250: 84cb ec54 e9f1 dbbf f4e9 1339 903e e23f
00000260: 6488 d5d3 f0a0 fd3f ce5a a979 9c1a f3bf
00000270: 7c30 a027 92b9 c33f 81e6 107b 66ca 0140
00000280: 222a b771 87f6 0040 9205 1e33 984c 2140
00000290: f4ad 4c5a 007a e73f a0fb d41a ed8c ef3f
000002a0: a377 624d addf 1540 8b59 6895 9751 1dc0
000002b0: a6e4 6efa d6a5 0840 a35d 3c2e d850 3340
000002c0: 8909 606e c15b 38c0 1ad7 c7a3 67c1 2840
000002d0: 96ad 0f5d fa0d 5240 4c14 2ec7 dcd0 14c0
000002e0: 5903 d4e4 6023 15c0 b485 a32b b2a2 1ac0
000002f0: 61af 1d08 a7d0 1340 fb72 4fdf 8582 19c0
00000300: 182e e7e7 bdd4 0840 81a7 c883 78ec e4bf
00000310: 95b3 a850 fb4a 1bc0 bf6d c32b e9f7 2dc0
00000320: c002 0a27 5b69 de3f 9d91 7e1e 251d db3f
00000330: 1544 497e 0c51 e1bf 54d1 066e 1967 f4bf
00000340: 9f07 9d0a f7cc e4bf fb81 b326 1b21 e63f
00000350: e603 9792 cc4e e6bf 0a79 fa0f 68de e03f
00000360: b367 9d95 c775 ce3f 351d ce9f a6f2 06c0
00000370: df72 6497 8345 0f40 2a17 d636 76c9 f2bf
00000380: 4ce2 7a36 ac9f f2bf eb1f a042 dcd6 d9bf
00000390: 5ea5 982d 4a5e e33f ddb4 14ba 5f9f f9bf
000003a0: 9745 a2bb 5a0a 0040 af07 616a 26d5 1e40
000003b0: 0da7 a688 e6f7 cdbf 4d02 545a ba9e d1bf
000003c0: 0c9f 61d2 36b7 d1bf 7cdc b04b 5431 f5bf
000003d0: 41e0 0063 c661 d9bf 4f4a eb37 6491 e03f
000003e0: 062b 6cd3 3d69 dabf 79bd 751f 52b4 f0bf
000003f0: 673e d4ed 9e73 d93f caeb 6136 cad5 d7bf
00000400: 7842 e566 7d02 fd3f 43e9 cf36 77d3 dc3f
00000410: 85c6 169f e145 e1bf 64d5 9615 f466 eabf
00000420: 4d65 a046 f177 e53f 284e bb49 29dc f03f
00000430: 0f12 fdb4 a8eb f13f b89c 441b 372c fd3f
00000440: ca57 b1a6 9469 d33f 5d10 e9ba d00e dfbf
00000450: 8aa5 5d0c d89f e03f 3115 b951 609d e2bf
00000460: d5a9 cc98 2b59 e43f 1526 d4f7 c4cc b93f
00000470: b970 63f2 f78e 0140 37be 5811 0350 fa3f
00000480: 4c51 22cb eb82 0240 3649 4878 c97c f4bf
00000490: 3d77 1e7c c3da 02c0 3e40 57d5 0292 ee3f
000004a0: 4d41 94e6 e2b5 d4bf c2ac ab64 389b d2bf
000004b0: 3ed6 6464 d98a f9bf 3f3f cba6 9500 dcbf
000004c0: fc6f c8f1 39d6 f2bf 828f d3ec 812d f3bf
000004d0: 16f0 f8d8 ade9 d4bf 7b7e 96b4 380a f23f
000004e0: 4442 59c5 ec66 c53f dc57 f75a 38b6 c33f
000004f0: 0762 43aa 6f91 e73f 9eb1 392c 4a28 f13f
00000500: 539a ec77 1c10 f0bf ce20 e3c8 9ca5 febf
00000510: 7457 8b5e efdf a33f b9ce 4fce a354 cb3f
00000520: 1a92 ff84 c2da ebbf fd35 1c32 e66c 983f
00000530: c602 3ec7 5a7b edbf d27e 5a9a 518a a43f
00000540: c219 7c85 f9fa d7bf 16d6 afbf 896a f4bf
00000550: 2c5d 4d26 a3cd fdbf 7cdc 34ed bdb7 0340
00000560: 9df9 a8f0 c6a3 edbf d410 8bb0 8be5 c8bf
00000570: a255 16df a11b c43f 3ee2 f848 4a3a dbbf
00000580: c5cf 115d 7f16 99bf b40d 9aca ccbd cb3f
00000590: aa5d de2e b86f d6bf b074 f2e4 93e9 ea3f
000005a0: acb1 a48c b47e 0d40 01f4 c76e b0af 15c0
000005b0: 3fa6 7435 0aec 2bc0 0c14 87c0 6c43 f73f
000005c0: 8074 b02c c8a1 05c0 0b07 b74b c738 1740
000005d0: 10f8 c18f 99ab f23f 58f0 2f79 e64b e3bf
000005e0: d75b 74d1 584c 1ec0 f083 5bea 38b4 32c0
000005f0: 1319 7faa 748f 1440 a87a d48f 5292 c5bf
00000600: 2c9b bc19 dd36 14c0 7109 eba4 0e9c 1b40
00000610: a87a 0151 452f 2040 5320 5d5f 3d05 16c0
00000620: fdf6 d4d6 df9e f23f f5ba c078 249f 13c0
00000630: 859c d192 9dbc 23c0 c620 fb3a cc6d 1740
00000640: eda8 65fe 32f1 f23f 327e 212e 8b08 0e40
00000650: 53c4 8d52 c40e 18c0 7a76 f4f2 ae1f 1340
00000660: f848 3dad ec39 1ec0 82ff 27b4 82a5 15c0
00000670: 2102 65a4 f4df 1b40 d93a ee1d 8ce0 1840
00000680: 606f 7a1c 8677 0c40 4908 cac0 5dde 06c0
00000690: 0e5a eb50 b7eb fcbf daa7 9b90 30e5 08c0
000006a0: dba8 22d3 58ca e03f d384 8562 6d25 763f
000006b0: 8433 942e b008 08c0 a802 6a71 88b6 11c0
000006c0: bdec 29e6 65de 0a40 408e 4ba5 41c2 cd3f
000006d0: f85d 4d16 4636 04c0 474d cffd d004 f9bf
000006e0: 0c19 ab0d 390b 0040 1160 0bd4 4ce0 bb3f
000006f0: 1fc3 7f46 4196 0640 f85e 06ee 0879 0740
00000700: 9360 16fc 593b 0c40 c0f9 215c 13e7 ee3f
00000710: db5a df76 0ddb 09c0 cd12 9935 0741 1140
00000720: 5ca9 ef66 cea6 0140 460b c271 0dbb eabf
00000730: 87a1 6b3f bf43 dabf db11 2fe8 68a3 0fc0
00000740: 8025 1cca 7b07 fbbf 064e c132 7b07 1dc0
00000750: 23a0 b66c 2f9f fabf b7de eeac 7284 d73f
00000760: 11d4 90ac f26f 0640 0223 2487 f08a f33f
00000770: 3978 3879 96c2 f3bf e575 c5a7 28fd 12c0
00000780: b5e1 b262 5429 0140 f179 58dc ed32 c33f
00000790: 2f09 ae2f ab73 22c0 1348 5afb f48c 0240
000007a0: 2f2b d7f5 537f 16c0 4ba3 5f80 d308 fd3f
000007b0: 398a 3104 3456 2240 609f 30bd fc7c 27c0
000007c0: 4556 b4ce 471a ea3f f11a 14a4 a60f 3d40
000007d0: 348b e738 a06f 46c0 262e 44ae d98f 1ec0
000007e0: 75f9 d734 5a4a 4640 887d 4c53 3506 2640
000007f0: 2942 ec1f 4c45 2140 cc0a 7605 c36e 1240
-1.1319785894659808 0.07410475387226981 -0.22156377886688514 0.15428566828751403 -0.08946137998495239 0.4154740151812596 0.3688914240868702 0.23720668282836788
0.08519852947323701 1.3268265160984554 -0.5254581723145387 -0.08322365337526026 -0.06407612116360167 -0.620961361695974 -0.42060529767799176 0.06704771038312161
-0.47256299067508983 -0.48861688524628105 0.7713570366488078 2.729520616567507 7.097556038148081 0.1287668436345556 1.4067844472908608 -1.049077416779993
-1.4228599056685016 -2.8672126898010353 4.427012036583634 18.587181980158007 -2.3028804888234533 1.4827308330754359 0.7593125900794977 -1.341216419003002
-0.9962526629336179 0.1555172530037374 -0.15995615853596454 1.1453750240440284 2.844517054380999 -2.9465136654684287 -0.02015077577568786 1.7348294583180341
1.1138296575542563 -2.3612233119660853 1.8515188421475233 3.796996166239644 -1.9252527182130572 -6.709464369813789 -0.3126032510800299 -0.6708081481136559
0.49826833365004897 -0.5796272333871605 -0.09159742752362995 -0.6888250855332794 -1.4864469356717085 0.0035842247745527275 5.497800175299086 -1.0697018684252033
-0.573509738465779 0.9264452070766649 1.0476185699053668 -0.10065752308667794 0.053148432397568356 -0.15041108767422195 0.4730085295328179 2.3281990304867994
0.24885949244774838 -1.0737957519177475 -2.5402991140665914 -2.7088239575531845 -1.2961817045518844 -2.1203740103685806 -2.389364030833913 4.089652796022271
16.79566819383506 -0.955563477012006 -0.43664010327773206 0.5701371302414473 1.8517921709795013 -1.1939968826679208 0.15410067496157243 2.223828278973827
2.120375526811828 8.649598691382185 0.7336427463209803 0.9859529041349226 5.468434533247918 -7.329679808134084 3.0809764447299868 19.31579865430616
-24.3584202751604 12.377743833679734 72.2184059765917 -5.2039672014116825 -5.2845493082430375 -6.658882791381462 4.953762175380548 -6.377463807319823
3.1038778417039445 -0.6538660596754512 -6.823224315926287 -14.984200828176538 0.4751804238549475 0.4236538694188086 -0.5411436525847672 -1.2751707361140534
-0.6500201422970696 0.6915412670023778 -0.6971190322002456 0.5271492302015599 0.23796934895909558 -2.8684818730140713 3.908942396882011 -1.1741850034754386
-1.1639825943112951 -0.40373903757472246 0.6052599802543843 -1.6014096516403733 2.0050558718582567 7.7081543561670705 -0.23412782356654596 -0.2753129846678675
-0.2768075041299063 -1.3245432812380207 -0.39659270923903384 0.5177479831857655 -0.41267343184215155 -1.044023630991289 0.39768193459983653 -0.37242369948188225
1.8131078738553281 0.4504068408274586 -0.5397804362493878 -0.8250675603546083 0.6708914164948198 1.0537503128188153 1.120033938395071 1.823294741168679
0.3033191326006742 -0.4852792573258336 0.5195121995467826 -0.581710967650599 0.6358850464214877 0.10078078318124313 2.1948088585469034 1.6445341756442653
2.3139263028953447 -1.280465574124333 -2.356818170242063 0.9553236166775674 -0.32360146062366796 -0.29072389441598656 -1.5963987275730598 -0.437535679707242
-1.1773013538977457 -1.1986102343589384 -0.32676263989174126 1.1274954847539493 0.1672035182587185 0.15399841729839536 0.7365034413770112 1.0723363616517427
-1.0039333996334292 -1.9154327246815686 0.03881786374192489 0.21352050374809098 -0.8704540822623728 0.023852917488559545 -0.9213079348993112 0.040117788402538004
-0.3746932796060741 -1.2760102737205492 -1.8627044197253992 2.4647177249676684 -0.9262423229591153 -0.19450517769121822 0.15709327118808597 -0.4254327499980127
-0.024499883704677723 0.21672973530449513 -0.35056881501210546 0.8410129043219481 3.686867808128417 -5.421571474985286 -13.961015387048176 1.4539611359225573
-2.7039950839376274 5.805447752996552 1.1668944945845432 -0.6030151717127508 -7.574557564475035 -18.703993460981962 5.14009348297829 -0.16852790854405453
-5.053577806603055 6.902399613233102 8.092325717382963 -5.505116930064179 1.1637876884337282 -4.905412565959286 -9.868389690482454 5.8572243896271114
1.1838865220439019 3.7541717151614415 -6.0144207858111995 4.780940815134835 -7.5565669125228325 -5.411631407681741 6.968706673302706 6.219284503617666
3.5583612656463828 -2.858577257314242 -1.8075478707229453 -3.111909036398157 0.5247005580652301 0.005406787190026924 -3.004242290399306 -4.428254863829956
3.3585927945656224 0.23249073573161816 -2.526500868068748 -1.5636758722728972 2.0054799144592206 0.10889129807344512 2.8233666904201438 2.9340990634626642
3.5289802259758942 0.9657074737040645 -3.2319592749512203 4.31350406405245 2.2064483682526497 -0.8353335592113147 -0.4103849524822398 -3.954789937912421
-1.6893270392341435 -7.257305901573551 -1.6638635870567746 0.36745898139950434 2.804662082834064 1.2214207915259867 -1.2350067839793282 -4.74722540037826
2.1451804838981965 0.14999173411429426 -9.225915422434438 2.3188266407896747 -5.624343720682005 1.814654828509634 9.168365603492122 -11.744115745721217
0.8157080685802575 29.061136488827234 -44.87207709604118 -7.640478823577302 44.58087788148524 11.012125590407564 8.635346410360471 4.608165822343562
